Model: "model"
_________________________________________________________________
 Layer (type)                Output Shape              Param #   
=================================================================
 input_1 (InputLayer)        [(None, 66, 200, 3)]      0         
                                                                 
 normalization (Normalizati  (None, 66, 200, 3)        7         
 on)                                                             
                                                                 
 conv2d (Conv2D)             (None, 31, 98, 24)        1824      
                                                                 
 dropout (Dropout)           (None, 31, 98, 24)        0         
                                                                 
 conv2d_1 (Conv2D)           (None, 14, 47, 36)        21636     
                                                                 
 conv2d_2 (Conv2D)           (None, 5, 22, 48)         43248     
                                                                 
 conv2d_3 (Conv2D)           (None, 3, 20, 64)         27712     
                                                                 
 dropout_1 (Dropout)         (None, 3, 20, 64)         0         
                                                                 
 conv2d_4 (Conv2D)           (None, 1, 18, 64)         36928     
                                                                 
 flatten (Flatten)           (None, 1152)              0         
                                                                 
 dense (Dense)               (None, 100)               115300    
                                                                 
 dense_1 (Dense)             (None, 50)                5050      
                                                                 
 dropout_2 (Dropout)         (None, 50)                0         
                                                                 
 dense_2 (Dense)             (None, 20)                1020      
                                                                 
 dense_3 (Dense)             (None, 11)                231       
                                                                 
=================================================================
Total params: 252956 (988.11 KB)
Trainable params: 252949 (988.08 KB)
Non-trainable params: 7 (32.00 Byte)
_________________________________________________________________
Epochs: 25
Batchsize: 64

Data Sets Used: ['/home/luca/raspicar/data/29-04-2024_15-16-4
…
